model/model_onnx.onnx (onnx, 302818 bytes, 21 tensors)

backbone.1.block.1.fc1.bias f4 [8]
00000000: 114e ecb0 152f 1fb1 277c 2bb9 3d01 01b1
00000010: 212a b1b0 1196 9632 d75c c2b1 b5ae d42e
-1.7193448e-09 -2.3164308e-09 -0.00016354081 -1.8772675e-09 -1.2890419e-09 1.753054e-08 -5.6566978e-09 9.671678e-11

backbone.1.block.1.fc2.bias f4 [16]
00000000: 9424 113f f241 263f 863e c93e 89bc 93bf
00000010: bc21 39bf 927a ac3f f437 b7be b477 febe
00000020: dc08 113f da77 aebe 5391 243f b810 60be
00000030: a8ff e4be c501 dfbd 1f95 283e d97f b8be
0.5669644 0.64944375 0.39305514 -1.1541911 -0.723171 1.3474905 -0.35784876 -0.497007
0.56654143 -0.34075814 0.6428425 -0.21881378 -0.447263 -0.108890094 0.16463135 -0.3603504

backbone.4.block.2.fc1.bias f4 [24]
00000000: 0cba 48b1 8735 d9b1 f057 a2b0 b9e6 90b1
00000010: a892 12b1 a16d a4b1 c886 5eb1 2322 f431
00000020: abec 91af 3c9a cbb1 04ee 4f3e d849 04b1
00000030: 5326 86b1 3024 f4b2 c808 4930 075b bdaf
00000040: 252e fbb0 bccd 99b1 e5a3 8cb0 ada7 aeb0
00000050: 2382 2031 9f0e 11b2 1c8f 8ab1 f829 f7ae
-2.9209586e-09 -6.3216166e-09 -1.1812045e-09 -4.2171817e-09 -2.132916e-09 -4.7854916e-09 -3.2381866e-09 7.1052155e-09
-2.654351e-10 -5.925612e-09 0.2030564 -1.9250503e-09 -3.9042702e-09 -2.8421795e-08 7.3135853e-10 -3.4443579e-10
-1.8275769e-09 -4.4762754e-09 -1.0232922e-09 -1.2707823e-09 2.3357039e-09 -8.443435e-09 -4.0325983e-09 -1.1239715e-10

backbone.5.block.2.fc1.bias f4 [64]
00000000: df04 83bc d8bb 923e c0e8 99bb 3d67 e03d
00000010: 2fad 023e 87b3 da3d 8c09 543e 60b6 f73d
00000020: 4097 11be 4180 dcbd 3bf7 493e b67e 323e
00000030: aaa9 b3be beaa acbd fe74 eb3d 91ca 1a3d
00000040: f8b2 5abd bd19 c83e c571 d53d 5b77 b0bc
00000050: 5cd5 9e3d c035 063d 27e2 e93d 204c e23e
00000060: 47a0 9c3d 7eb5 183e d7e3 2f3e 1782 c039
00000070: b8f3 4c3e 187f 36bd 0e1a 0cbe 972e 193e
00000080: 07a1 aebd 764b 36bc 7c68 dd3d ebaf d83d
00000090: 57c2 bcbc e82a 983e 7fb5 34bc b39b 43bd
000000a0: ec46 133f b072 653e b54c 5f3e 1022 d73d
000000b0: 48c8 963e 3945 3f3d 6367 cfbd 63b0 4a3c
000000c0: f0af a3bc 62e8 123e c26f cbbd 4383 a53d
000000d0: 24bf 863c a848 4e3c d082 553e 29df fa3d
000000e0: eab0 f1bc 8c85 4b3d bb9b 0a3f bc4d 823e
000000f0: bad6 733d a4f3 693d a094 babc 95d5 173e
-0.015993534 0.28658938 -0.0046969354 0.10957191 0.12761377 0.106787734 0.20706767 0.12095332
-0.14217854 -0.1076665 0.19723217 0.17431149 -0.3509038 -0.08431004 0.11496924 0.03779084
-0.053393334 0.39082137 0.104220904 -0.021541288 0.07755539 0.032766104 0.11420088 0.44198704
0.07647758 0.14912984 0.17176758 0.00036718018 0.20014846 -0.0445548 -0.13681814 0.14959179
-0.08526807 -0.01112639 0.108109444 0.10580429 -0.023041887 0.29720235 -0.0110296 -0.04775591
0.57530093 0.22407031 0.21806605 0.10504544 0.29449677 0.046696875 -0.10127141 0.012371155
-0.019981354 0.1434646 -0.099334255 0.08081677 0.016448565 0.012590565 0.20850682 0.12249596
-0.029503305 0.049687907 0.54143876 0.25449932 0.05953095 0.05711712 -0.022775948 0.14827569

backbone.6.block.2.fc1.bias f4 [64]
00000000: cf3c 343c 7e9c 953d e191 75bd 79f2 653e
00000010: 4f89 053e c708 363e 97c5 d43c 1c6e a1bc
00000020: e9f5 423e 917f 8d3e 1a57 863d 2506 0f3e
00000030: 2868 fa3d 1dd1 bf3d 3840 46bc 69a3 1cbd
00000040: fe94 373c 1c86 623e 6bad b23e 121b a23e
00000050: 14b7 0dbd 659e 1c3e be27 513d de8c 133e
00000060: ff1c 93bd a9d6 733e dbc1 833d d9c7 cbbb
00000070: 5306 903d ce47 603e b3b6 14be e3e4 e93c
00000080: 6f8c 53bd 2485 6a3d f2c2 a83c 39a5 e93d
00000090: 6797 1f3f 9344 1f3e bb4c 7c3d d736 5e3e
000000a0: 77c1 433e 43c5 9f3d 5653 083d 0b80 173e
000000b0: a793 5b3e 5735 8a3e 177f 223c f439 d63d
000000c0: 229b ca3d 1b85 3b3d 4819 d83d 1334 a73e
000000d0: 3d63 efbc de5a 22be 5794 82be ef8c b33e
000000e0: 0805 ad3c 12bb 983d dfa6 453d 1e0d 2c3d
000000f0: 1d50 0d3e f3ed 6c3e d51a 183d d7db fc3c
0.011000826 0.07305239 -0.059953574 0.22455777 0.1304066 0.17776786 0.025973124 -0.019705825
0.1903912 0.27636388 0.06559582 0.13967188 0.122268975 0.09366057 -0.012100272 -0.038241778
0.011204956 0.22121471 0.34897932 0.31661278 -0.034598425 0.15294798 0.05106329 0.14409205
-0.07183265 0.23812355 0.06433459 -0.006218892 0.07032456 0.21902391 -0.14522819 0.028551525
-0.0516476 0.05725588 0.02060077 0.11408467 0.62340397 0.15553503 0.061596613 0.21700607
0.1911677 0.078012966 0.0332826 0.14794938 0.21443044 0.2699382 0.009917996 0.104602724
0.098928705 0.045781236 0.10551697 0.32656917 -0.029222125 -0.15854976 -0.255038 0.3506846
0.021120563 0.07457556 0.048254844 0.042004697 0.13800092 0.23137645 0.037134964 0.030866547

backbone.7.block.2.fc1.bias f4 [32]
00000000: 08fb 2f2f 9ce1 84b1 7525 1cb2 df14 45b4
00000010: 5ced 66b4 fdcc 6e30 4920 1bb3 0dc6 04b2
00000020: 4d69 e232 3768 3b3d 6065 12bc f397 edb2
00000030: 0f97 a43e ab17 b632 c902 8132 5090 0a3d
00000040: 31b0 ebb5 15e4 ae32 bea9 76bd 1fa3 ef32
00000050: 21c2 b93c e882 2032 d2e7 f4bc 3df1 55b3
00000060: e1b8 a1b2 a3a1 a830 31a8 04b3 110a 0eb2
00000070: b08f fab0 189c 9531 a649 733d 218e 9432
1.6005341e-10 -3.8673544e-09 -9.088912e-09 -1.8354648e-07 -2.150677e-07 8.68752e-10 -3.6118113e-08 -7.728443e-09
2.6357748e-08 0.045753684 -0.0089353025 -2.765953e-08 0.321465 2.1198352e-08 1.5018843e-08 0.033829033
-1.7560143e-06 2.0359986e-08 -0.060220473 2.789744e-08 0.022675576 9.34299e-09 -0.029895697 -4.9812332e-08
-1.882694e-08 1.2269549e-09 -3.0886614e-08 -8.267777e-09 -1.8230732e-09 4.3542165e-09 0.05939641 1.72941e-08

backbone.8.block.2.fc1.bias f4 [40]
00000000: 637b 333e e25c b23d 1e53 a43e 4fd1 033f
00000010: 72bf b73d 139c 733e 4a28 063e c95f 453e
00000020: ed45 f83d 5263 20bd 72c1 593d 4bb6 023e
00000030: a5b1 b73e fed1 873e 6eb6 9c3e 797d 8e3e
00000040: 5348 913d 8064 8d3e 9fac 863e e208 c93c
00000050: 2922 033e 77f5 633e a366 ce3e e804 053f
00000060: e274 9a3e 5b6e b23d 72eb 8c3e 3c3f 923e
00000070: eb1a e03e 140e 893d 05e6 723e 1c4c 463e
00000080: 293b fa3e 4def 983d 7224 0a3e 9685 aa3e
00000090: f004 843e aaba c83e 3ef2 b23e 20f3 583e
0.17527537 0.08709122 0.32094663 0.51491255 0.08972062 0.23790006 0.13101307 0.1927482
0.12122712 -0.03915722 0.053163 0.12764852 0.3587772 0.265274 0.30607933 0.27830103
0.07093873 0.27615738 0.26303574 0.024540368 0.12806 0.22261606 0.4031268 0.5196061
0.301673 0.08712455 0.2752338 0.2856387 0.43770537 0.06692138 0.23720558 0.19364971
0.4887326 0.07467518 0.13490465 0.33305043 0.25785017 0.39204913 0.3495044 0.21186495

upsample.4.bias f4 [64]
00000000: ad97 9ebc 44e7 f1bc aaa1 e23d 159c 0a3b
00000010: ebff d23c 6c67 4cbc 537d 57bb ce30 59bc
00000020: 3120 ec3c 5c46 b43c d84c 08bb 8d73 0f3d
00000030: 6624 c1bc 6d43 beb9 a9a9 24bb afb1 59bc
00000040: 20ef 0e3a f589 02bb ae17 e2bc f47a 44bc
00000050: 07b1 cf3c 960d ad3c f218 c6bc 0496 14bc
00000060: d1ce f23d 21c7 d73c afbd fc3b 73dc 50bc
00000070: ee48 a9bc 5aae 3ebb f4de 90bb 01e2 25bc
00000080: f36a 6dbc 6e77 a4bc 3809 013c d7b7 28ba
00000090: 5494 f4bb 3596 83bc a103 a3bc d445 b7bc
000000a0: ff85 0abc 6e44 adbc c661 31bc 0905 173b
000000b0: 11e3 64bc 1d57 01bd 3e61 82bb 8427 0fbc
000000c0: 0310 aa3b 8447 9abc c45e 60bb 8cd8 a8bc
000000d0: dc08 493c eb4e aebc 9358 bbbc 4f35 953c
000000e0: 4b7b 30bc dcb5 063d 6774 0d3d 90ba 21bc
000000f0: 3566 3d3c 72e3 043b ec71 353d 6be4 c1bc
-0.019359434 -0.029529221 0.11065991 0.002115016 0.025756797 -0.01247583 -0.0032881096 -0.013256265
0.028823944 0.022006206 -0.0020797756 0.035022307 -0.023576926 -0.0003628986 -0.002512554 -0.013286992
0.00054525025 -0.0019918655 -0.027599182 -0.011992205 0.025352968 0.021124642 -0.024181817 -0.00906897
0.11855853 0.02634007 0.0077130417 -0.012747872 -0.020664658 -0.002909562 -0.0044211093 -0.010124684
-0.014490831 -0.02007648 0.007875733 -0.00064360857 -0.007463971 -0.016062835 -0.019899191 -0.022372164
-0.008454799 -0.021150794 -0.010826534 0.0023043773 -0.0139701525 -0.03157722 -0.0039788773 -0.008737449
0.005189897 -0.01883293 -0.0034236172 -0.02061107 0.012270179 -0.021277865 -0.022869384 0.018213896
-0.010771583 0.03288828 0.034534838 -0.00987114 0.011560013 0.002027717 0.044298097 -0.023668488

upsample.7.bias f4 [32]
00000000: f8e7 63bc d543 dc3c 7e4a 8f3c 2b7a 033e
00000010: c3e7 b63c 8478 4ebb 8825 f73d aab4 97bb
00000020: b84c b83c 4279 0d3d 3ce1 ecbb babf 44bd
00000030: 9701 afbc 867a f63c 120d cdbc 84ad 82ba
00000040: bebd dfbb eae2 833b 976d 05bd 38f1 363d
00000050: 0e06 1bbc 5c86 cdbc 6656 57bb 7ae3 58bc
00000060: 79df b8bb 0653 863b c0be c83c 36f7 aebc
00000070: a2fe 13bd ba20 c2ba 78bb 1e3b b000 14bc
-0.013910286 0.026887814 0.017491575 0.12839572 0.02232731 -0.0031504938 0.120677054 -0.004629691
0.02249752 0.03453947 -0.0072289985 -0.048034407 -0.021363063 0.03008772 -0.025030646 -0.0009969925
-0.006828039 0.004024853 -0.032575216 0.044663638 -0.009461893 -0.025088482 -0.0032857894 -0.013237828
-0.0056418744 0.0040992526 0.02450502 -0.021358114 -0.03613151 -0.0014810779 0.0024220627 -0.009033367

head.weight f4 [1, 32, 1, 1]
00000000: 1299 1cbe 568d 35be a0db 263e 16a7 21be
00000010: 461a 023e fe37 8abd 5cf1 893d 4793 d4bd
00000020: d53d 04be cb7d 2e3e 2928 70bc 26b4 053e
00000030: d2d1 81be 807d 4abd 3266 0f3e 0e8a 9e3c
00000040: 6808 0abe fbca f2bc 1260 38be 3ab5 9dbc
00000050: 10fb 66bd 603f 92bd 2312 ebbd 9b99 283e
00000060: bdc7 2abe 0e79 03be 4aa2 083d 784b 5d3d
00000070: 5090 c9bc ffb7 5e3d e005 c6bd 7f64 d1bd
-0.15292767 -0.17729697 0.16294718 -0.15786394 0.12705335 -0.06748961 0.06735489 -0.103796534
-0.12914212 0.17040174 -0.014658012 0.13057002 -0.25355393 -0.049436092 0.14003828 0.019352939
-0.13479769 -0.029637804 -0.18005398 -0.019251455 -0.056391776 -0.07140994 -0.11478069 0.16464846
-0.16677757 -0.12839147 0.033357896 0.05402705 -0.024604946 0.05437469 -0.09669089 -0.10224246

backbone.0.0.weight_bias f4 [16]
00000000: d647 9240 68cf 2240 b8c8 3240 40fa 31c0
00000010: bf63 2f40 412e 2e40 c9f4 813e 9710 d9bc
00000020: 7f0f 2b40 0106 2540 3995 2440 3af3 6cbf
00000030: 7d69 b63e 6f37 fa3e dfc5 8c3f dc6d 12c0
4.571269 2.543909 2.793501 -2.780899 2.740463 2.721573 0.2538207 -0.026497168
2.6728208 2.5784914 2.5716078 -0.92558634 0.35627356 0.48870417 1.0997885 -2.2879553

backbone.1.block.0.0.weight_bias f4 [16]
00000000: 5d4f 243f 6b10 e73f 7143 5740 9a05 9a3e
00000010: 3ffa 873d e96a 4040 2f58 443e dfa5 1d3f
00000020: b8b3 fb3f a40e be3e 8895 873e c026 ad3b
00000030: 86c3 2a3e d6a8 553e 1be4 04be 2c23 d53f
0.641836 1.8051885 3.3634913 0.300824 0.066395275 3.0065253 0.19174264 0.61581224
1.9664221 0.37120545 0.2648127 0.0052841604 0.16676149 0.20865187 -0.1297764 1.6651359

backbone.1.block.2.0.weight_bias f4 [16]
00000000: 0656 8e40 8e97 c9c0 80b6 71c0 2a48 1ac0
00000010: e3a3 86bf 6db3 7f3e 0db4 a0c0 4d37 11bf
00000020: ffa3 0ec1 e805 63c0 93e5 e13e ca4b 21c0
00000030: 287f 4bc0 1927 0bc0 9297 73bf 15d7 2e40
4.448001 -6.2997503 -3.776764 -2.4106545 -1.0518764 0.24970789 -5.021979 -0.5672501
-8.915038 -3.5472355 0.44120464 -2.5202508 -3.179636 -2.1742613 -0.9515315 2.7318776

backbone.2.block.2.0.weight_bias f4 [24]
00000000: 3542 31bf b010 9fbf d929 8b40 4c29 32bf
00000010: 2df0 d5bf a72f 2cc0 ff63 9c3f cd33 cb40
00000020: e7df 4ac0 0f78 c0bf a06c 15be 7d72 f43f
00000030: 445b 293e 4c8a 5a3f b294 2740 03dd f23f
00000040: 4c6e 1440 cd6e 1dbd 62b0 0f40 50e0 e83f
00000050: 936b a9bf 3c16 6fbf 04b0 0f3d fcee 5fc0
-0.6924165 -1.2426968 4.3488584 -0.69594264 -1.6713921 -2.6904085 1.2218016 6.3500733
-3.169916 -1.5036639 -0.14592218 1.9097439 0.16538721 0.85367274 2.6184506 1.8973697
2.319232 -0.038435746 2.2451406 1.8193455 -1.3235954 -0.933933 0.03507997 -3.4989614

backbone.3.block.2.0.weight_bias f4 [24]
00000000: 3abf a1c0 8524 013f 117a d13f 74d8 dc3e
00000010: b37f 2d3f 8fa9 6340 06ab 28bf b52a 0140
00000020: d931 e3be 2bfc 73be b066 2f3e e19f 38bf
00000030: 8720 a8bf edd6 d5bf e8cd 8dbf 6f9d ac3f
00000040: c719 ccbf 8a81 3dc0 f2c7 123f 9ba8 46c0
00000050: 2e07 f9be 3bde dd3e 32c6 9a3f f186 a6be
-5.054593 0.5044635 1.6365377 0.4313389 0.6777298 3.557224 -0.6588596 2.0182316
-0.44373968 -0.23826663 0.17129016 -0.72118956 -1.3134927 -1.6706215 -1.1078463 1.3485545
-1.5945367 -2.9610314 0.5733634 -3.1040409 -0.4863829 0.4333361 1.2091734 -0.32524827

backbone.4.block.3.0.weight_bias f4 [40]
00000000: 5941 923d 5345 02c0 7fb1 b0be 0b47 10c0
00000010: 4f3e 4c3f 5104 c23f caca 33bf 6155 21bf
00000020: f771 f43f 1115 143f 2715 513f 2ac6 ad3f
00000030: 6cde 03bf 3bb4 55c0 87b5 1540 b6f5 b7bd
00000040: 20cb 2540 d353 8ec0 3879 3940 b0a6 0b3f
00000050: a66c 5bbe 2bec 60bf 929c 073f 47e0 eabf
00000060: 5e62 033f 3807 253f 85d1 a83f 4561 2bbf
00000070: d3fb 99bf 42db 3e40 c8b7 cd3e e105 f9be
00000080: f501 bdbe 9e60 a93f 9e5e 1ac0 9afd 453d
00000090: 6f89 efbf 3dfa b83f aaca 5dbf dfb7 50bf
0.0714137 -2.0354812 -0.3451042 -2.254336 0.79782575 1.5157567 -0.70231307 -0.630209
1.9097279 0.57844645 0.816729 1.35761 -0.51511264 -3.3391254 2.3392045 -0.089824125
2.5905228 -4.4477324 2.8980236 0.5455122 -0.21428165 -0.87860364 0.5297328 -1.8349694
0.5132197 0.6446414 1.318894 -0.66945297 -1.2029976 2.9821324 0.40179276 -0.48637298
-0.36915556 1.323261 -2.412025 0.048337556 -1.8713816 1.4451367 -0.86637366 -0.81530565

backbone.5.block.3.0.weight_bias f4 [40]
00000000: 4b6f 5ebe 56a2 783f affb 4cbe eb12 0e3f
00000010: 42e0 9d3e 9c61 cebe 62de 03bf 71f0 7bbf
00000020: b7f4 54bf 720c 2ebc 8342 003e 1ac0 e3be
00000030: 3970 153f 1570 53bf cc86 543f 793f cd3f
00000040: 931d 6d3e eaaa 643e 16ca 113e e724 06bf
00000050: 881f ad3c 464f 1abe 0328 d2be 206c 8d3e
00000060: 3b08 08bf 855f c4bf a60e 1140 b84b 9c3f
00000070: 1658 14be 156f 823f 74f9 673e ea8a 4f3e
00000080: 615a 20bf 1b6a 833e 847f 94bf 5678 5a3f
00000090: 08bd 973e b254 88bf ed29 6e3e b4d7 8a3f
-0.21722142 0.97122705 -0.20017885 0.55497617 0.30835158 -0.40308845 -0.51511204 -0.9841376
-0.83185905 -0.010623084 0.12525372 -0.444825 0.58374363 -0.825929 0.83018184 1.6034995
0.23155813 0.22330824 0.14237246 -0.5240006 0.0211332 -0.15069303 -0.41046152 0.27621555
-0.5313756 -1.534165 2.266519 1.2210608 -0.14486727 1.019015 0.22653753 0.20267835
-0.6263791 0.2566689 -1.1601415 0.8533987 0.29636407 -1.0650847 0.23258181 1.0847077

backbone.6.block.3.0.weight_bias f4 [40]
00000000: a47e 3e40 a119 d5bd 8433 cbbf 3d92 edbe
00000010: 7f73 d1be 6594 d7be dd3f a43e 28d6 3ebf
00000020: c201 3dbf 7240 54be a993 04bf 1d9e a13c
00000030: 6b35 0c3e 4cd8 15bf 141c cd3e f4ee a53e
00000040: 890c dcbe c03f 73be 26ad d4bf 7a92 72bf
00000050: de2c d83f 9c51 333f 35b0 9b3f 8bf3 96bf
00000060: 9d00 283c 0094 0e3f 5820 2140 b717 123f
00000070: 55c9 5f40 6283 833f b284 80bf 785d 5ebf
00000080: 9f82 0a3f 3d70 d13f d30e 7fbf 5361 803f
00000090: 73fb d73d 9b1e eabf 8a6f 6cbe 790f 8dbf
2.9764795 -0.10405279 -1.5875096 -0.46400633 -0.4090843 -0.42105404 0.32079974 -0.74545527
-0.7383081 -0.20727709 -0.5178781 0.019728715 0.13692252 -0.5853317 0.40060484 0.3240887
-0.42978314 -0.23754787 -1.6615341 -0.94754755 1.6888692 0.700464 1.2163149 -1.1793073
0.0102540525 0.5569458 2.517599 0.57067436 3.4966633 1.027447 -1.0040495 -0.8686137
0.5410556 1.6362377 -0.99631995 1.0029701 0.10546007 -1.829059 -0.23089424 -1.1020347

backbone.7.block.3.0.weight_bias f4 [48]
00000000: 4644 803e 157e 7cbe 2729 523e a54b f4bf
00000010: 5a39 39bf ae91 cdbe b7da 9abe f2ae 52bf
00000020: 2343 1c40 adee 6cbd 9d24 05bf d7ad 573f
00000030: 059f 5bc0 fed3 1f3e 9314 8c3e 68c1 783e
00000040: 0f79 48bf 5f92 3abf efcb 70bf b7a1 c4bd
00000050: 727e 96bf 7391 ac3f 1ae2 24bf 66fd ffbe
00000060: a277 6d3f 6728 f63e 85df 683f de8e e53e
00000070: da10 86bf 64ff bdbd 4e73 22be 8bd7 b1bf
00000080: 1018 9c3c f369 9dbf dfb6 5cbe d06d 473f
00000090: 45cc cdbf 84b3 b8bf f079 583f 8aef 383f
000000a0: b996 633f e117 e9be 5364 363e 11d1 34bf
000000b0: aa0c 81bf 37c6 dc3d 4744 d1bf 4bb7 13bf
0.25052088 -0.24657471 0.20523511 -1.9085585 -0.72353137 -0.40150207 -0.3024499 -0.82298195
2.4415977 -0.057844806 -0.5200899 0.84249634 -3.4315808 0.15608212 0.27359447 0.24292529
-0.7830972 -0.72879595 -0.9406118 -0.09601157 -1.1757338 1.3481888 -0.64407504 -0.49998015
0.9276067 0.480777 0.90966064 0.44835562 -1.0473893 -0.092772275 -0.15864298 -1.3893903
0.019054443 -1.2297958 -0.21554135 0.77901936 -1.6077963 -1.4429784 0.8456106 0.7224051
0.8890186 -0.4552603 0.17811708 -0.7063151 -1.008199 0.10779994 -1.6348962 -0.5770156

backbone.8.block.3.0.weight_bias f4 [48]
00000000: fca0 0340 c6cc d6bd 43da dbbe 558d 3d3f
00000010: dd5e aabf 6ec6 193f d2d6 c3be 82ce cebe
00000020: 0de0 2340 ffd3 34be 501a 983d 1602 0f3f
00000030: ca9b 64be 53b4 90bf 224b 88be 5e72 943e
00000040: 27e0 e0be 4417 763e aed2 a33d 75c0 a93d
00000050: 47de 13be 0f46 22bf 6872 bb3e d689 003e
00000060: c6d4 113f 1646 87be 8719 853d ebee 013e
00000070: 9539 863f 8ce7 e93d 671f 113e 7ecd 9c3e
00000080: 6ee6 553e b17e f8be b372 31be 3d93 90be
00000090: 2e23 d9bf 37d0 0f3e ef1a 253e 5ad5 2f3f
000000a0: bc13 5a3f 084c 153f ecb7 023e 9cdf 1c3f
000000b0: 0cd2 cc3f 72db 883d b6f3 543e d990 893e
2.0567007 -0.10488276 -0.42939958 0.7404378 -1.33102 0.60068405 -0.38249832 -0.40391928
2.56055 -0.17658995 0.07426894 0.5586256 -0.22325054 -1.130503 -0.26619822 0.28993505
-0.43921015 0.24032313 0.07999168 0.082886614 -0.14440261 -0.6338815 0.36610723 0.1255258
0.5696529 -0.2642066 0.064990096 0.12688796 1.0486323 0.11421117 0.14172135 0.30625528
0.20888683 -0.48534158 -0.1732891 -0.28237334 -1.6963861 0.14044271 0.16123556 0.68684924
0.8518636 0.5831914 0.12765473 0.612787 1.6001601 0.06682481 0.20796093 0.26868322

val_328 f4 [4]
00000000: 0000 803f 0000 803f 0000 0040 0000 0040
1.0 1.0 2.0 2.0
