model/onnx_hybrid_1/model_fast.onnx (onnx, 301618 bytes, 21 tensors)

backbone.1.block.1.fc1.bias f4 [8]
00000000: 314d ecb0 352e 1fb1 477b 2bb9 5d00 01b1
00000010: 4129 b1b0 3195 9632 f75b c2b1 d5ad d42e
-1.7193199e-09 -2.316381e-09 -0.00016353755 -1.8772177e-09 -1.289017e-09 1.7530143e-08 -5.6565983e-09 9.6715226e-11

backbone.1.block.1.fc2.bias f4 [16]
00000000: 6d1b 123f de55 233f b6b5 cb3e 1b04 93bf
00000010: af6a 38bf 4fe3 ad3f 719a b7be c2b7 ffbe
00000020: 1797 143f 7a74 b4be 9391 203f 648a 69be
00000030: a879 ecbe 5f08 c5bd a9a1 253e 3404 b5be
0.570731 0.638029 0.39787072 -1.1485628 -0.72037786 1.3584994 -0.35860017 -0.49944884
0.58043045 -0.35245115 0.6272213 -0.22806698 -0.46186566 -0.09620737 0.1617495 -0.3535477

backbone.4.block.2.fc1.bias f4 [24]
00000000: 2cb9 48b1 a734 d9b1 1057 a2b0 d9e5 90b1
00000010: c891 12b1 c16c a4b1 e885 5eb1 4321 f431
00000020: cbeb 91af 5c99 cbb1 400b 533e f848 04b1
00000030: 7325 86b1 5023 f4b2 e807 4930 275a bdaf
00000040: 452d fbb0 dccc 99b1 05a3 8cb0 cda6 aeb0
00000050: 4381 2031 bf0d 11b2 3c8e 8ab1 1829 f7ae
-2.9209088e-09 -6.321517e-09 -1.1811796e-09 -4.2170822e-09 -2.1328663e-09 -4.785392e-09 -3.2381369e-09 7.105116e-09
-2.6542887e-10 -5.9255125e-09 0.2060976 -1.9250006e-09 -3.9041708e-09 -2.8421397e-08 7.313461e-10 -3.4442957e-10
-1.827552e-09 -4.476176e-09 -1.0232674e-09 -1.2707574e-09 2.3356541e-09 -8.443236e-09 -4.032499e-09 -1.1239559e-10

backbone.5.block.2.fc1.bias f4 [64]
00000000: ff10 85bc 4ea9 903e 2dbe a7bb 3594 cf3d
00000010: b782 0c3e bbf3 d93d 9697 5c3e a4d3 fb3d
00000020: ae3d 13be 3c73 e9bd 166d 473e 5173 353e
00000030: 1155 b7be 9310 c1bd a22f da3d 7559 bb3c
00000040: 36ec 63bd 0eca c73e 2f03 ea3d bff5 b2bc
00000050: 7835 9a3d be26 433d 40e9 da3d 23e0 e23e
00000060: 5f6e 953d 30e6 1b3e 2f57 2b3e b775 8b3b
00000070: 03c4 5b3e e440 63bd 0657 0abe a758 283e
00000080: 2d33 b5bd 174b 81bc 73d4 e63d 3268 cf3d
00000090: cbbb a9bc 6171 953e 4049 80bc ff64 86bd
000000a0: 8a66 113f 65a7 6c3e 0f94 583e 1d7a cf3d
000000b0: 9afc 983e ee35 423d 2c64 c5bd c2cd 923c
000000c0: 2192 92bc 873f 063e 690f b8bd 5c87 833d
000000d0: 6356 533b 78f3 323c a903 553e d0a8 ff3d
000000e0: 9478 44bd 1be2 1d3d a61e 0a3f 10d3 843e
000000f0: b9ba 8c3d 73d0 683d e27e 78bc 08dc 153e
-0.016243456 0.2825417 -0.0051191063 0.1013569 0.13721739 0.10642191 0.215422 0.122962266
-0.14378998 -0.11398932 0.19475207 0.17719771 -0.35807088 -0.094269894 0.106536165 0.022869805
-0.05564519 0.39021343 0.114263885 -0.021845696 0.075297296 0.04764437 0.1068902 0.44311628
0.07296442 0.15224528 0.16732477 0.004255976 0.21461491 -0.055481806 -0.1350976 0.16440068
-0.08847652 -0.015782876 0.1127099 0.101272956 -0.02071943 0.29188064 -0.015659928 -0.06562232
0.5679709 0.23110731 0.2115023 0.10130713 0.2988022 0.047414713 -0.09638247 0.017920379
-0.017891945 0.13110171 -0.08987314 0.06422302 0.0032247535 0.010922305 0.20802177 0.1248337
-0.047966555 0.03854571 0.53953016 0.25942278 0.06871552 0.056839418 -0.01516697 0.14634717

backbone.6.block.2.fc1.bias f4 [64]
00000000: 737d ae3c 0a78 8e3d b10b 5bbd f677 663e
00000010: 3cab 0a3e 83d6 423e 9844 5f3c 36df 90bc
00000020: e8c0 433e 1952 8b3e 18a3 ad3d 12ab 123e
00000030: 5bde e63d 2ced c33d 05d1 223b 2958 13bd
00000040: 8585 da3c 6499 5f3e 87f0 b93e b5a5 a63e
00000050: 3063 34bd f570 263e b7b7 773d 9773 1e3e
00000060: 2fa3 8cbd f1dc 783e 75aa 783d 06d7 88bb
00000070: 7267 683d f8ab 673e 3e3f 18be a7f8 073d
00000080: 59f6 55bd 564d 743d 6aec fd3c 545b 013e
00000090: a5e0 203f ff63 153e 17f5 793d 5ec3 633e
000000a0: 90c1 423e d58b 953d d85c 333d 687e 193e
000000b0: 36d1 513e 71c0 8b3e f767 9b3c f95f f93d
000000c0: eee9 dc3d d9f0 103d b9ad df3d 4d9e ac3e
000000d0: 8aab f9bc 4e5d 28be 446e 78be c2f7 b13e
000000e0: 984f c03c 8edd 853d 41c3 923d 6890 563d
000000f0: 7bc3 ed3d 78fc 663e 8e99 a43c d43c 083d
0.021300053 0.069564894 -0.053477947 0.22506699 0.13541883 0.19027142 0.013627194 -0.01768456
0.19116557 0.27211073 0.08478373 0.1432307 0.1127288 0.09566721 0.0024843824 -0.035972748
0.026674995 0.21835858 0.3631632 0.325483 -0.044039905 0.16254027 0.06047794 0.15473782
-0.06867062 0.24303032 0.060709435 -0.0041760234 0.05673928 0.22624195 -0.14867875 0.033196118
-0.05223689 0.059644066 0.03099652 0.12632495 0.6284278 0.14588927 0.06102475 0.22242495
0.1901915 0.073020615 0.043789715 0.14989626 0.20489964 0.2729526 0.018970473 0.121765085
0.10786806 0.03538594 0.10921807 0.33714524 -0.030477304 -0.16441843 -0.24260813 0.34759337
0.023475453 0.06536399 0.07166148 0.05238381 0.116095506 0.22557247 0.020092752 0.033261135

backbone.7.block.2.fc1.bias f4 [32]
00000000: 28fa 2f2f bce0 84b1 9524 1cb2 ff13 45b4
00000010: 7cec 66b4 1dcc 6e30 691f 1bb3 2dc5 04b2
00000020: 6d68 e232 9d80 363d c8f8 69bb 1397 edb2
00000030: e20e a53e cb16 b632 e901 8132 50ea 123d
00000040: 51af ebb5 35e3 ae32 ee39 77bd 3fa2 ef32
00000050: 2424 ec3c 0882 2032 31e6 24bd 5df0 55b3
00000060: 01b8 a1b2 c3a0 a830 51a7 04b3 3109 0eb2
00000070: d08e fab0 389b 9531 71c9 2e3d 418d 9432
1.600503e-10 -3.867255e-09 -9.088713e-09 -1.8354329e-07 -2.1506452e-07 8.687396e-10 -3.6117317e-08 -7.728244e-09
2.635735e-08 0.04455625 -0.0035701264 -2.7659132e-08 0.32237917 2.1197954e-08 1.5018445e-08 0.03586799
-1.7559888e-06 2.0359588e-08 -0.06035798 2.7897043e-08 0.028825827 9.342791e-09 -0.04025859 -4.9811536e-08
-1.8826542e-08 1.22693e-09 -3.088582e-08 -8.267578e-09 -1.8230484e-09 4.354117e-09 0.04267258 1.7293702e-08

backbone.8.block.2.fc1.bias f4 [40]
00000000: f18b 353e 8949 9b3d 568b a73e 662f 073f
00000010: d22a c13d 9cf5 713e 2249 043e b9d1 443e
00000020: ebec e73d 93f1 37bd ea9e 7f3d ff26 073e
00000030: bb24 b83e 0e93 823e 46c3 9b3e c3d2 8a3e
00000040: 9a87 a63d 5810 903e 568c 833e 7612 083d
00000050: e392 123e 49b0 653e 8294 d13e d977 063f
00000060: d058 9c3e 03d2 b13d cefb 913e 8b13 8d3e
00000070: 39e9 e53e 20d1 9d3d 2f6c 873e 13a4 3f3e
00000080: 136c f13e 0ee5 9f3d 4bd9 163e 78a3 b43e
00000090: 974b 863e cba0 c83e 084a b63e 7f70 603e
0.17729165 0.07582385 0.32723492 0.528067 0.094319955 0.23628849 0.12918523 0.19220628
0.113244854 -0.044908118 0.06240741 0.1319847 0.35965523 0.2550282 0.3042242 0.27113923
0.08131333 0.2813747 0.25693005 0.03322073 0.14313845 0.22430529 0.40933615 0.52526623
0.3053651 0.08682635 0.28512424 0.27553973 0.44904497 0.07705903 0.26449725 0.18714933
0.47152767 0.078073606 0.14731328 0.35280967 0.26229545 0.39185175 0.35603356 0.21917914

head.0.weight f4 [1, 48, 1, 1]
00000000: 09e3 84be 752f 1fbe a22f 5a3d a704 22be
00000010: 2982 40be e0b4 11be 79e8 c43d 84a1 2c3d
00000020: d41a ffbd 180f 52be 4789 cf3d 19ac 3fbe
00000030: 9a2c 933d 7feb 6cbe 78b6 55be b29f df3d
00000040: 3536 11be 9797 25be 513e 42be b691 0a3d
00000050: 306d 2fbe e021 27be 4e69 1dbe 89aa 00be
00000060: eee8 70be 6966 193d 88ef 1ebe ac73 70be
00000070: 780f 69be 237e 403d 3b20 27be cc22 16be
00000080: c87c 6cbe 1494 50be ea4e d73d 6b91 1abe
00000090: cd07 3f3c 426c 1abe 29e1 00be a19b 04be
000000a0: cce0 47be 3575 c83d 8408 513d 6706 53be
000000b0: 5d2e 723d 6cdf 14be d60b 07be 0b63 d03d
-0.25954464 -0.15545447 0.053268082 -0.15822087 -0.18799652 -0.14229155 0.09614653 0.04214622
-0.12456289 -0.2051357 0.101336055 -0.18717994 0.071862414 -0.2313671 -0.20870388 0.10919131
-0.14180835 -0.16171108 -0.18969084 0.033830367 -0.17131495 -0.16321516 -0.15372202 -0.12565054
-0.23526356 0.03745118 -0.15521061 -0.23481625 -0.22759807 0.046995293 -0.16320889 -0.14661711
-0.23094475 -0.20368987 0.105130985 -0.15094535 0.011659575 -0.1508036 -0.12585892 -0.12949993
-0.19519347 0.097879805 0.05103351 -0.20607911 0.059126247 -0.14538354 -0.13188109 0.10175141

backbone.0.0.weight_bias f4 [16]
00000000: ddcb 9140 d714 2240 7869 3240 124a 1fc0
00000010: 9874 3040 50b2 2e40 f7d8 723e 5c51 14bd
00000020: 929f 2b40 98c9 2640 c970 2640 582e 73bf
00000030: 422d b53e 832e fa3e 4a9b 8e3f 36de 2cc0
4.5561357 2.532522 2.7876873 -2.488896 2.7571163 2.7296333 0.23715578 -0.036210403
2.6816144 2.6060543 2.6006339 -0.9499259 0.3538609 0.4886361 1.114114 -2.7010627

backbone.1.block.0.0.weight_bias f4 [16]
00000000: 1883 ea3e 86a6 e03f 983f 5a40 7ea8 8f3e
00000010: 3004 57ba d271 4540 9f73 3c3d db9f 1c3f
00000020: 7189 fa3f f077 6e3e 8820 b03e 50fd eb3c
00000030: 6664 263e 466a 483e 463c 503e 2283 d53f
0.45803142 1.7550819 3.4101315 0.28058237 -0.0008202223 3.085072 0.046008702 0.6118142
1.9573194 0.2328794 0.3439982 0.028807312 0.16249236 0.1957179 0.20335492 1.6680644

backbone.1.block.2.0.weight_bias f4 [16]
00000000: 9f50 8c40 338b ccc0 fc1d 7ec0 2990 1cc0
00000010: 58ed 7cbf 85de 543e 55b6 a6c0 d0fa f0be
00000020: a78f 10c1 0572 67c0 b715 ef3e c0cc 1ec0
00000030: 776e 52c0 5d9c 11c0 0390 80bf 0710 3a40
4.3848414 -6.391992 -3.97058 -2.4462988 -0.9879966 0.2078801 -5.2097573 -0.47066355
-9.035071 -3.6163342 0.46696255 -2.481247 -3.2879922 -2.2751687 -1.0043949 2.9072282

backbone.2.block.2.0.weight_bias f4 [24]
00000000: 4813 2cbf e0ec 96bf ea97 8d40 9837 2ebf
00000010: 239b cebf 18f0 2fc0 21d0 a83f 0105 c840
00000020: 868a 4ec0 9c49 c0bf 8d56 17be 962f ee3f
00000030: 42fb 363e 20bb 4d3f c7da 2640 0b9c e23f
00000040: afa4 1140 70ed 9fbd 5b7a 0f40 5181 f23f
00000050: 5edf b4bf 1d9f 7dbf 486c 09bd d36a 69c0
-0.6721692 -1.1791039 4.424794 -0.6805358 -1.6141094 -2.7490292 1.3188516 6.250611
-3.2272048 -1.5022464 -0.1477911 1.8608272 0.17869285 0.80363655 2.607103 1.770387
2.2756765 -0.078089595 2.241843 1.8945714 -1.4130666 -0.9907091 -0.03355053 -3.647145

backbone.3.block.2.0.weight_bias f4 [24]
00000000: e488 a0c0 d080 0a3f 0cca e73f 626b f53e
00000010: 0276 413f 0e34 5040 3a1a 21bf 07f4 0740
00000020: 7478 c4be 58af 47be 3de8 413e 09ee 37bf
00000030: 002c 9abf e707 eabf 5184 92bf 2d49 a43f
00000040: 043e ebbf ed58 37c0 6aeb fa3e b46d 40c0
00000050: a104 02bf b504 33bd f416 853f 1346 f1bd
-5.0167103 0.541028 1.8108535 0.4793349 0.7557069 3.2531772 -0.62930644 2.1242692
-0.38373148 -0.19500482 0.18936248 -0.7184759 -1.2044678 -1.8283662 -1.144663 1.2834831
-1.8378301 -2.8648026 0.49007732 -3.0066957 -0.50788313 -0.04370566 1.039763 -0.11780944

backbone.4.block.3.0.weight_bias f4 [40]
00000000: c229 153e 03d6 eabf 21ec a1be 0807 08c0
00000010: caed 4a3f 0943 b33f 730a 47bf cfee 27bf
00000020: 86a9 f83f 9932 133f 8022 313f 24e9 943f
00000030: c323 dabe b5c9 3ec0 75e8 1840 5e65 a6bd
00000040: 2249 2440 597c 95c0 512b 4240 760c 083f
00000050: 4aaa 68be 30e2 51bf 7d4b 013f 7d3b 0ac0
00000060: a1ae 113f 7af2 163f c434 b43f b7f5 25bf
00000070: cd6d a1bf dcdd 2e40 ab90 c33e 1171 45bf
00000080: e29f aebe 42f1 8a3f f0f7 2cc0 aa7a fb3c
00000090: 8e3c f5bf 3cac bf3f e4e5 8ebf 8447 4abf
0.1456671 -1.8346561 -0.31625465 -2.1254292 0.7926909 1.4004833 -0.7775032 -0.6559877
1.9426734 0.5749908 0.6919327 1.1633649 -0.4260541 -2.9810612 2.389188 -0.08124803
2.5669637 -4.671429 3.0338938 0.53144014 -0.2272121 -0.8198576 0.5050581 -2.1598809
0.5690709 0.5896374 1.4078603 -0.64828056 -1.2611634 2.7322912 0.3819631 -0.7712565
-0.34106356 1.0854876 -2.702633 0.03069814 -1.9159105 1.4974437 -1.1163907 -0.79015374

backbone.5.block.3.0.weight_bias f4 [40]
00000000: 45cf 2bbf 288e 873f c014 59be 2327 ac3e
00000010: 2dd9 883d 9833 f6be c4e0 2dbf 5f70 57bf
00000020: 7ae1 3fbf e60c fcbd 11f6 973d 80af ffbe
00000030: 1653 b43e 18ed 7abf 38fc 5a3f 07a6 d43f
00000040: 64d2 863e 73a3 033f ec1f ac3e c1e8 36be
00000050: d375 9bbe f68e 59bd 192f 813d e55e 843e
00000060: b66e ecbe 31d8 bdbf 894b 1540 9466 9c3f
00000070: e62d 7c3d fdec 493f f50f 353f 8bf4 603e
00000080: f018 eebe 2f2d bf3e 9091 81bf cd02 803f
00000090: c4fa 263e ba35 abbf ec46 633e 1865 ad3f
-0.67113143 1.0590258 -0.21199322 0.3362361 0.06682048 -0.48086238 -0.6792109 -0.8415584
-0.74953425 -0.12307148 0.0741998 -0.49938583 0.3521964 -0.98018026 0.85541105 1.6613168
0.2633239 0.5142128 0.33618104 -0.17862226 -0.3036333 -0.053114854 0.06307811 0.2585365
-0.46178216 -1.4831601 2.3327353 1.2218804 0.06156721 0.7887724 0.70727473 0.21968286
-0.465034 0.3733916 -1.0122547 1.0000855 0.16306597 -1.3375771 0.22195023 1.3546476

backbone.6.block.3.0.weight_bias f4 [40]
00000000: dada 9240 95c9 1ebd 4c4a f9bf eace 88bf
00000010: f1fb 1ebf 0a22 06bf bebf 693e 2d34 33bf
00000020: 811e 12bf cd9d 9dbe a3c4 f3be 6900 533e
00000030: 517f 5e3e c374 52bf 21db d93e 7ab5 27be
00000040: 8ce6 e1be dc7b a13e e5b9 febf 5b84 69bf
00000050: b1ad e33f 2b80 873f 4c45 c73f 6ffd 9fbf
00000060: c941 fa3d a99d 7c3f 954c 4440 5897 163f
00000070: ba7d 7d40 7c70 733f 13e0 87bf fd68 66bf
00000080: 94cd 433f 1b3a f53f be1d 98bf 471c a23f
00000090: 9742 97bd ba22 09c0 cb43 03bf 39e0 a3bf
4.5892153 -0.038766462 -1.9475799 -1.0688145 -0.6210318 -0.5239569 0.2282705 -0.7000149
-0.57077795 -0.30784455 -0.4761096 0.20605625 0.21728255 -0.82209414 0.42549995 -0.16377822
-0.44121206 0.3153981 -1.990048 -0.91217583 1.7787381 1.0585989 1.5568023 -1.2499217
0.12219579 0.9867807 3.0671742 0.5882468 3.9607987 0.9509351 -1.0615257 -0.9000395
0.7648556 1.9158357 -1.1884077 1.266488 -0.07385748 -2.1427445 -0.5127532 -1.2802802

backbone.7.block.3.0.weight_bias f4 [48]
00000000: 3f81 813e 9bbf 82be ce69 673e 23ce 08c0
00000010: 3297 05bf b548 cbbe 0f4a 4dbe f450 47bf
00000020: eb43 1740 df25 90bd 1e76 03bf e355 403f
00000030: 9e78 55c0 337b a33e 05be 663e cd14 7a3e
00000040: 2165 40bf 84b1 2bbf 45a6 7cbf 486e 07be
00000050: 66cf 85bf d5e6 a03f dadf 61bf f665 01bf
00000060: 7c66 663f 0a5c 113f 280b 663f 2763 ff3e
00000070: eb6c 91bf 8ce4 80bd a216 09be 4e05 bbbf
00000080: 48af 973c 0418 8abf 3f83 78be a41a 443f
00000090: 00ba bebf 8823 abbf 3c6c 5a3f e7cb 563f
000000a0: c62f 693f 70d7 03bf 3dfa 293e f328 51bf
000000b0: a1d2 83bf f970 213e b791 b9bf 615e 1cbf
0.2529392 -0.25536808 0.22598955 -2.1375816 -0.5218383 -0.3970391 -0.20047782 -0.778579
2.3635204 -0.07038473 -0.5135211 0.7513105 -3.335487 0.3192993 0.22533424 0.24421997
-0.7515431 -0.6706774 -0.9869121 -0.13225663 -1.0453918 1.2570444 -0.88232195 -0.50546205
0.9000013 0.56781065 0.89860773 0.49880335 -1.1361364 -0.06293592 -0.1338754 -1.4610994
0.018516198 -1.0788579 -0.24268816 0.7660315 -1.4900513 -1.3370218 0.853214 0.8390488
0.9108852 -0.51500607 0.16599365 -0.8170311 -1.0298654 0.15765752 -1.4497594 -0.6108151

backbone.8.block.3.0.weight_bias f4 [48]
00000000: 2b79 0c40 5e75 1abe e681 ecbe 0b86 143f
00000010: 4c5c d0bf c437 193f ca26 71be fc55 eabe
00000020: c9d3 1a40 d6ca 35be 08d1 4abd 51de 3f3f
00000030: 1122 8bbe 3665 9cbf c299 40be 2d81 9f3e
00000040: 6cf7 c6be bcfe 973e bbec 2e3e 24b6 2a3e
00000050: 4d47 0dbe dc43 4abf f17f c93e f7e2 fb3d
00000060: 1aad 323f 4fa3 79be e813 283b fd57 3c3e
00000070: 502d b23f 5117 1d3e c235 0b3e 2faa a93e
00000080: 0971 863e 0d51 04bf 4f34 01be b5d3 acbe
00000090: b4d2 05c0 5f1f 6e3e 0b79 1b3e 1c87 343f
000000a0: cd91 583f 4bfa 493f f504 023e 48a9 203f
000000b0: f525 c83f 1603 393e 9423 933e 9d91 813e
2.1948955 -0.15083835 -0.46192855 0.58017033 -1.6278167 0.59850717 -0.23549953 -0.45768726
2.4191763 -0.17753157 -0.049515754 0.749486 -0.27174428 -1.2218387 -0.18808654 0.3115324
-0.38860643 0.29686534 0.17082493 0.16671044 -0.1379673 -0.79009795 0.39355424 0.122991495
0.6979538 -0.24378704 0.002564663 0.1839294 1.3920078 0.15340926 0.13594726 0.33137652
0.26258114 -0.51686174 -0.1261761 -0.3375527 -2.0909853 0.23254155 0.15182893 0.7051866
0.84597474 0.7889754 0.12697203 0.627583 1.5636584 0.18067583 0.2873808 0.25306407

upsample.9.weight_bias f4 [48]
00000000: a043 c53e 82ba fa3d 92cf 0e3f 2db7 c5be
00000010: cc10 4c3f 27ca cd3e 5671 983f c263 85be
00000020: 9929 ca3e 9832 ffbd 426c ef3e 8dfd 663f
00000030: 3d7e cc3e 0c77 cfbd f6e5 743f e9cd 913f
00000040: d128 403f 20cd 283f 7511 083f ec60 0f3f
00000050: 6808 5e3f dd02 37be 2a74 ea3e fa7a debe
00000060: bfbe b03e 4278 f53e 5dfb b83f 23fe a43e
00000070: b0b5 523f e46f 63bf 46c1 9c3f 3c0e 7c3f
00000080: 2de5 91bc e26d 163f 3e25 063f 06af 6b3f
00000090: 2e90 373f 4339 813f 761f db3e 208a e33b
000000a0: 7097 a63a 5e43 9e3e 0555 ad3e 0cf4 cd3f
000000b0: 4e9a b7be 5f9b e33e 159a 953f 8624 323f
0.38528156 0.12242605 0.5578548 -0.38616315 0.7971313 0.40193292 1.1909587 -0.26052672
0.39484861 -0.12460822 0.46762282 0.9023064 0.39940062 -0.10130128 0.9566339 1.1390964
0.7506228 0.65937996 0.5315164 0.56007266 0.86731577 -0.17872186 0.4579175 -0.434532
0.34520528 0.47943312 1.445171 0.3222514 0.82308483 -0.88842607 1.2246482 0.9845922
-0.017809475 0.5876142 0.5240058 0.9206394 0.71704376 1.00956 0.4279744 0.006943956
0.0012709927 0.30910772 0.33853927 1.6090102 -0.35859913 0.44454476 1.1687647 0.6958698

refine.0.weight_bias f4 [48]
00000000: af4c 2e3f 9102 833f d9ad 39bf b11e 203f
00000010: b9ef be3f 33bc db3f 85b0 ac3d 5924 07bd
00000020: 528e 0340 4e12 9c3f e208 15bf 8257 783f
00000030: e903 043e 7e74 623f c503 513e 93bd 0a3f
00000040: e2fd 833f 32f5 743f 6eec 843e a841 9a3e
00000050: 0782 163f 4a25 753f a95c a63e 6eb9 bc3d
00000060: 6e13 383f 1f47 64bf 1619 183f 3bb5 8b3f
00000070: 8b3d 813f dc58 ed3e 0d70 a53f bce6 2e3f
00000080: da7d ac3e c811 d03f 0151 183f 35b2 203f
00000090: 4191 db3e 6921 903f 68a1 9d3f 0879 d13f
000000a0: 7e92 9c3f 2e1e a23e 475a c5bf ed50 bc3f
000000b0: b4de 8a3e 4409 433f dea3 153f ec67 7b3e
0.6808576 1.0235158 -0.72530895 0.6254683 1.4916908 1.7166809 0.08432106 -0.03299365
2.0555615 1.2193086 -0.5821668 0.97008526 0.12892117 0.88459 0.20411594 0.5419552
1.0311854 0.9568664 0.25961632 0.30128217 0.58792156 0.95760024 0.3249257 0.092150554
0.7190465 -0.8917102 0.5941328 1.0914682 1.0096906 0.46356857 1.292482 0.6832082
0.33689767 1.6255426 0.594986 0.6277192 0.42884257 1.1260196 1.2314882 1.6365061
1.2232206 0.3166365 -1.5418175 1.4712197 0.27123034 0.76186013 0.58453166 0.24551362

val_328 f4 [4]
00000000: 0000 803f 0000 803f 0000 0040 0000 0040
1.0 1.0 2.0 2.0
