model/onnx_hybrid_2/model_fast.onnx (onnx, 301746 bytes, 21 tensors)

backbone.1.block.1.fc1.bias f4 [8]
000000 45 41 ec b0 49 22 1f b1 5b 6f 2b b9 71 f4 00 b1
       -1.7189811e-09 -2.3157034e-09 -0.00016349314 -1.87654e-09
000010 55 1d b1 b0 45 89 96 32 0b 50 c2 b1 e9 a1 d4 2e
       -1.2886782e-09 1.7524721e-08 -5.655243e-09 9.669405e-11

backbone.1.block.1.fc2.bias f4 [16]
000000 c6 9c 11 3f 75 24 22 3f a8 39 cc 3e f2 c3 91 bf
       0.5687984 0.6333688 0.39887738 -1.1387923
000010 cf e9 35 bf 36 23 ab 3f 04 15 b0 be 9e a6 f2 be
       -0.7105989 1.337012 -0.34391034 -0.47392744
000020 7c dd 11 3f 9c 97 bb be 7c 02 23 3f 8a 96 7a be
       0.56978583 -0.36639106 0.63675666 -0.24471489
000030 d1 8b e7 be 12 83 cc bd d8 88 33 3e 27 8c af be
       -0.4522386 -0.09985937 0.1753267 -0.34286615

backbone.4.block.2.fc1.bias f4 [24]
000000 40 ad 48 b1 bb 28 d9 b1 24 4b a2 b0 ed d9 90 b1
       -2.9202312e-09 -6.3201617e-09 -1.1808408e-09 -4.215727e-09
000010 dc 85 12 b1 d5 60 a4 b1 fc 79 5e b1 57 15 f4 31
       -2.1321886e-09 -4.7840367e-09 -3.2374592e-09 7.1037607e-09
000020 df df 91 af 70 8d cb b1 54 ff 52 3e 0c 3d 04 b1
       -2.6534416e-10 -5.924157e-09 0.20605212 -1.924323e-09
000030 87 19 86 b1 64 17 f4 b2 fc fb 48 30 3b 4e bd af
       -3.9028154e-09 -2.8415975e-08 7.311767e-10 -3.4434486e-10
000040 59 21 fb b0 f0 c0 99 b1 19 97 8c b0 e1 9a ae b0
       -1.8272132e-09 -4.4748205e-09 -1.0229285e-09 -1.2704185e-09
000050 57 75 20 31 d3 01 11 b2 50 82 8a b1 2c 1d f7 ae
       2.3349764e-09 -8.440526e-09 -4.0311434e-09 -1.12374415e-10

backbone.5.block.2.fc1.bias f4 [64]
000000 9c 1a e9 bc 2a bd 91 3e 02 77 1e bb e9 16 bc 3d
       -0.028455071 0.28464633 -0.002417982 0.09184057
000010 6d 33 fe 3d 20 66 d7 3d 7b f7 5b 3e d0 0e fa 3d
       0.124121524 0.10517526 0.21481125 0.122098565
000020 0e 53 17 be 4f be d6 bd 33 98 52 3e ff 0e 4b 3e
       -0.14777777 -0.10485517 0.20565872 0.1982994
000030 f6 7c b8 be ba 2b c2 bd dd fa c8 3d 24 ed 00 3d
       -0.36032838 -0.094809964 0.098134734 0.031476155
000040 aa 58 6e bd 56 21 c4 3e f3 b7 c9 3d 6e 3b be bc
       -0.058190025 0.38306683 0.09849539 -0.023221698
000050 04 ca 91 3d 6f df 0b 3d 2c 6e ec 3d 0a 0c e9 3e
       0.071186095 0.03414863 0.11544451 0.45516998
000060 8e 48 83 3d 9d f9 1c 3e 03 2d 28 3e f1 dc 35 3c
       0.06410323 0.15329595 0.1642342 0.01110004
000070 9f 3e 5a 3e a7 0d 68 bd ff 2d 1c be b1 08 20 3e
       0.2131295 -0.056653645 -0.15251921 0.15628316
000080 1e 38 c3 bd 8a 7c 31 bc 9d 19 e7 3d 0b 7c ce 3d
       -0.09532188 -0.010832915 0.11284182 0.10082253
000090 49 b6 53 bc a0 d9 98 3e 00 4b 8c bc a1 1f 80 bd
       -0.012921878 0.29853535 -0.017125607 -0.06256033
0000a0 f5 bd 11 3f a4 b1 6e 3e 5f 5a 59 3e 98 a1 d1 3d
       0.56930476 0.23309952 0.2122588 0.102359
0000b0 08 65 96 3e 67 d9 1d 3d 62 91 be bd 53 34 ec 3b
       0.29373956 0.03853741 -0.09305073 0.007208386
0000c0 a8 86 00 bd 2a 67 0f 3e a2 d2 b9 bd 86 39 93 3d
       -0.03137842 0.14004198 -0.09073378 0.07188706
0000d0 5f 0f 23 3c d7 b1 d2 3c 01 44 5e 3e af 21 05 3e
       0.009952395 0.025719566 0.21705629 0.1300113
0000e0 bd 01 c8 bc 43 2c 41 3d 90 65 08 3f fd 90 80 3e
       -0.024414891 0.047161352 0.5327997 0.25110617
0000f0 9a 41 67 3d c8 2d 7a 3d 08 f6 12 bc d6 6d 19 3e
       0.056459047 0.061078817 -0.008969791 0.14983305

backbone.6.block.2.fc1.bias f4 [64]
000000 dc 7c 54 b9 51 13 93 3d 11 2a 69 bd 66 91 69 3e
       -0.00020264409 0.07181419 -0.056924883 0.22809371
000010 13 06 09 3e 4f cd 43 3e bc b5 f4 3c 22 aa c7 bc
       0.13381223 0.19121288 0.029871814 -0.024373118
000020 5a 2f 3c 3e 2d 41 8e 3e 5a 6b 90 3d 82 b8 18 3e
       0.18377438 0.277841 0.07051726 0.14914134
000030 90 2e ec 3d 13 ce df 3d 0b dc b2 bc 1f 86 42 bd
       0.115323186 0.109279774 -0.02183344 -0.04749119
000040 e9 2a 13 3c a6 83 5e 3e 85 d6 b5 3e 20 58 aa 3e
       0.008982399 0.21729907 0.35515228 0.3327036
000050 c9 6d 40 bd 52 72 0e 3e 31 b7 61 3d 18 c7 0f 3e
       -0.0469797 0.13910797 0.055106346 0.14040792
000060 21 1e 57 bd 05 45 78 3e 6c 5c 96 3d 29 63 71 bc
       -0.052518968 0.24245079 0.07341847 -0.014733114
000070 97 71 84 3d f2 ed 62 3e bc c7 1d be 77 ff 26 3d
       0.06466978 0.22161081 -0.15408224 0.040770974
000080 b0 84 85 bd 80 9e 82 3d d7 03 5d 3d d8 9d d2 3d
       -0.06519449 0.06377888 0.05395874 0.102840126
000090 66 fe 20 3f 81 b2 1d 3e e8 bd 86 3d 21 c0 62 3e
       0.6288818 0.15400125 0.065791905 0.22143604
0000a0 05 3a 3e 3e fc 89 84 3d e9 c1 2d 3d 38 ac 0e 3e
       0.1857682 0.06471631 0.042421255 0.13932884
0000b0 72 47 56 3e a3 9c 82 3e bf 78 43 3c b8 6d f5 3d
       0.20925692 0.2551013 0.011930644 0.11983818
0000c0 f7 0d c3 3d 65 4b 33 3d 4e da 01 3e 13 8f a9 3e
       0.09524148 0.043773074 0.12680933 0.3311697
0000d0 b0 92 07 bd 9c 7c 1c be a4 f0 79 be 96 40 b5 3e
       -0.033098876 -0.1528191 -0.24408203 0.35400838
0000e0 e9 90 b6 3c ac 51 a3 3d 1a 02 7b 3d e0 71 54 3d
       0.022285895 0.07974562 0.0612813 0.051866412
0000f0 ad 25 f2 3d 62 19 60 3e 4f ff 06 3d 90 93 2c 3d
       0.11823592 0.21884683 0.032958325 0.042132914

backbone.7.block.2.fc1.bias f4 [32]
000000 3c ee 2f 2f d0 d4 84 b1 a9 18 1c b2 13 08 45 b4
       1.6000795e-10 -3.8658996e-09 -9.086002e-09 -1.8349992e-07
000010 90 e0 66 b4 31 c0 6e 30 7d 13 1b b3 41 b9 04 b2
       -2.1502115e-07 8.6857016e-10 -3.6106474e-08 -7.725533e-09
000020 81 5c e2 32 d8 09 1a 3d 39 22 b1 3a 27 8b ed b2
       2.6351929e-08 0.037607044 0.0013514227 -2.765371e-08
000030 88 7f a1 3e df 0a b6 32 fd f5 80 32 f8 e5 ec 3c
       0.3154261 2.1192532e-08 1.5013024e-08 0.028918251
000040 65 a3 eb b5 49 d7 ae 32 4a 81 5d bd 53 96 ef 32
       -1.7556418e-06 2.0354166e-08 -0.054078378 2.7891621e-08
000050 32 e6 ac 3c 1c 76 20 32 ca 67 9f bc 71 e4 55 b3
       0.02110586 9.340081e-09 -0.01945867 -4.9800693e-08
000060 15 ac a1 b2 d7 94 a8 30 65 9b 04 b3 45 fd 0d b2
       -1.882112e-08 1.2265912e-09 -3.0874975e-08 -8.264867e-09
000070 e4 82 fa b0 4c 8f 95 31 05 c1 2a 3d 55 81 94 32
       -1.8227095e-09 4.3527617e-09 0.041687984 1.7288281e-08

backbone.8.block.2.fc1.bias f4 [40]
000000 b0 43 48 3e e0 11 b9 3d eb e1 a1 3e 8a 77 07 3f
       0.1955707 0.090366125 0.31617674 0.5291678
000010 fa 99 b6 3d 6d e5 7b 3e 0b 46 e8 3d fa 80 4f 3e
       0.089160874 0.24599238 0.11341485 0.20264044
000020 8f d6 e5 3d b6 bd 34 bd dc 5c 70 3d f5 e2 01 3e
       0.112225644 -0.044126235 0.058682308 0.12684233
000030 e6 c2 bb 3e 46 28 76 3e 67 6e a6 3e 14 87 8f 3e
       0.36672133 0.240388 0.32506105 0.28032744
000040 11 5b 9e 3d 9e e4 8d 3e ff de 84 3e 51 66 06 3d
       0.07732213 0.27713484 0.25951383 0.03281242
000050 2b 67 0e 3e 26 a4 5d 3e b6 4e d1 3e bc b5 05 3f
       0.13906543 0.21644649 0.40880364 0.5223043
000060 fd bd 93 3e 8f fe bc 3d 65 a5 87 3e e4 4e 85 3e
       0.28855887 0.09228241 0.26493374 0.2603675
000070 5b 75 dc 3e aa 15 9c 3d 00 00 87 3e 2d e8 46 3e
       0.43058285 0.076213196 0.26367188 0.19424506
000080 78 34 f3 3e 82 8a a6 3d bd f8 04 3e bd 6f af 3e
       0.47500968 0.08131887 0.12985511 0.34264937
000090 a0 89 86 3e cf 1a c8 3e ca fb b5 3e 84 5f 5b 3e
       0.26276875 0.39082953 0.35543662 0.21423155

head.0.weight f4 [1, 48, 1, 1]
000000 fe 45 88 be 9d 25 d0 3d dd 46 60 be f1 39 0e 3d
       -0.266159 0.10163424 -0.21902032 0.034723226
000010 25 57 80 3d f4 0d 73 be 54 aa 7d be 6e d2 9c be
       0.062666215 -0.23735791 -0.24772006 -0.30629295
000020 95 fc 22 be da 33 03 3d 05 a2 6d be cf da 51 be
       -0.15916665 0.03203187 -0.23206337 -0.20493625
000030 26 a8 ec 3c fc 36 83 be 89 c5 b8 be 30 1a 73 be
       0.028888773 -0.25627887 -0.36088207 -0.23740458
000040 81 f3 05 be b5 90 b2 bd 2f eb c8 3d f6 63 79 be
       -0.1308117 -0.08719007 0.09810483 -0.24354538
000050 77 2f 90 be 56 bb c9 3d 77 56 45 3c 3c 24 91 be
       -0.28161213 0.098501846 0.012044541 -0.28347957
000060 25 ac 25 3d 53 be 76 3d c3 b7 8c be d8 92 a6 3d
       0.040447373 0.0602401 -0.2748395 0.08133477
000070 7f 54 4e 3d a6 37 87 be fe 85 0b be 95 95 f5 3d
       0.05037355 -0.26409644 -0.13625333 0.11991421
000080 83 6c 65 3c 65 ef 82 be 70 6c ed 3d 5b 3f c9 3d
       0.014002922 -0.2557327 0.115929484 0.09826537
000090 70 94 58 be 59 a4 e0 3d 10 c8 74 be 4d b6 a3 be
       -0.21150374 0.10968847 -0.23904443 -0.31975022
0000a0 0d a0 0b 3d 38 27 9f be 5b c3 7e be 67 69 b9 3d
       0.034088183 -0.3108461 -0.2487921 0.09053307
0000b0 83 1c f4 3d a1 e3 88 bd 0b 2b a7 be 24 96 3c be
       0.11919501 -0.06684042 -0.32650027 -0.18416649

backbone.0.0.weight_bias f4 [16]
000000 36 2b 90 40 47 f1 1e 40 6a e4 31 40 cb 10 db bf
       4.505275 2.4834764 2.7795663 -1.71145
000010 5e bc 33 40 c3 ab 2b 40 fc b6 35 3e fa ff 7c bd
       2.808372 2.6823585 0.17745584 -0.061767556
000020 30 92 2c 40 ee 28 29 40 25 39 2e 40 20 cc 75 3e
       2.6964226 2.6431231 2.7222378 0.24003649
000030 2e 60 a0 3e e7 91 05 3f bb 8f 91 3f a4 25 75 c0
       0.3132338 0.52175754 1.1371988 -3.8304224

backbone.1.block.0.0.weight_bias f4 [16]
000000 61 e3 aa 3e 0f 20 e5 3f 06 a1 57 40 f9 9a 66 3e
       0.333766 1.7900409 3.369203 0.22520055
000010 f9 58 06 be 2e e4 3d 40 1e b1 ac 3c 5a 6c 14 3f
       -0.13119878 2.967052 0.02108055 0.5797783
000020 36 13 f3 3f 0c f6 1f 3f c8 82 8e 3e c0 87 a5 bc
       1.8990238 0.6248481 0.27834153 -0.020206332
000030 f1 49 9a 3e ca 70 f3 3c 89 cf a9 3e ff f9 d3 3f
       0.30134538 0.029716868 0.3316615 1.6560668

backbone.1.block.2.0.weight_bias f4 [16]
000000 28 d1 8e 40 40 0c d1 c0 20 a9 76 c0 8a 1f 1e c0
       4.463032 -6.5327454 -3.8540726 -2.470675
000010 e4 a0 8e bf 14 4f 36 3e 39 0f a4 c0 d5 71 fb be
       -1.114285 0.17803603 -5.126858 -0.49110284
000020 83 37 16 c1 bc 20 67 c0 17 d8 05 3f a1 53 20 c0
       -9.388553 -3.611373 0.5228285 -2.5051043
000030 09 8a 53 c0 3e a1 0f c0 50 82 83 bf fd 90 36 40
       -3.3053 -2.2442164 -1.0274143 2.8525994

backbone.2.block.2.0.weight_bias f4 [24]
000000 ab 79 2a bf 1b 15 9a bf e1 d1 86 40 5d 3f 47 bf
       -0.665919 -1.2037691 4.21312 -0.7783106
000010 e3 5f d3 bf 97 0e 32 c0 40 8f 91 3f 51 67 b5 40
       -1.6513637 -2.7821405 1.1371841 5.668862
000020 61 f7 3b c0 f5 40 c1 bf 7c 9b 27 be 72 86 e6 3f
       -2.9369738 -1.5097948 -0.16367906 1.800978
000030 d8 02 88 3e 7a e7 3b 3f 9a 2b 1f 40 30 65 e0 3f
       0.2656467 0.7340008 2.4870362 1.753088
000040 6b 42 01 40 35 f8 02 be 57 8d 09 40 32 8e f8 3f
       2.0196788 -0.12789996 2.1492517 1.9418395
000050 74 01 bc bf cd 15 7f bf 6d d4 77 3c a3 f9 75 c0
       -1.4687943 -0.9964264 0.01512633 -3.8433616

backbone.3.block.2.0.weight_bias f4 [24]
000000 eb 9b b0 c0 9d 7c e7 3e 39 a2 d8 3f 40 52 0a 3f
       -5.519033 0.4521226 1.6924506 0.54031754
000010 84 57 0e 3f f6 5f 43 40 e9 50 37 bf db 80 0e 40
       0.5560229 3.052732 -0.71607834 2.2266147
000020 fd 80 10 bf cb 00 84 bd 6a b1 30 3e a2 8b 47 bf
       -0.5644682 -0.06445464 0.17255178 -0.7794744
000030 3a ed 91 bf 11 f7 d6 bf 06 e0 6d bf 27 fe ba 3f
       -1.1400521 -1.6794149 -0.9291996 1.4608811
000040 63 5e e2 bf 9e a5 3c c0 ba e4 fe 3e 04 27 48 c0
       -1.7685055 -2.9476085 0.4978388 -3.1273813
000050 d2 6e 0b bf 85 b6 6f bc 45 48 97 3f e8 fb 03 3e
       -0.54465973 -0.014630918 1.181893 0.12889063

backbone.4.block.3.0.weight_bias f4 [40]
000000 d5 0b 16 bd bb 27 00 c0 6e af f4 be a3 08 11 c0
       -0.036632378 -2.002425 -0.47790092 -2.2661521
000010 99 a9 38 3f 53 7d bc 3f 3f 5a 15 bf b0 84 52 bf
       0.72133785 1.4725746 -0.5834083 -0.82233715
000020 e9 bb 0b 40 c0 13 13 3f 4d 75 3c 3f d8 74 b5 3f
       2.1833441 0.5745201 0.73616487 1.4176283
000030 dc bc 58 bf db 93 52 c0 ca 76 11 40 89 40 a0 bc
       -0.84663177 -3.2902744 2.2728753 -0.019562023
000040 83 45 25 40 4b b2 8a c0 59 82 4a 40 33 ba 27 3f
       2.5823677 -4.3342643 3.1642058 0.6551849
000050 3e 85 90 bc 03 81 54 bf 06 76 e9 3e e2 bb f4 bf
       -0.01764166 -0.83009356 0.45597857 -1.9119837
000060 00 92 03 3f e7 15 08 3f 93 b1 af 3f f2 22 2f bf
       0.51394653 0.5315842 1.3726066 -0.684127
000070 fa cc ac bf f0 c4 37 40 fe 81 99 3e 99 ee 56 bf
       -1.3500054 2.871395 0.2998199 -0.8395782
000080 95 8c db be 22 85 6e 3f 42 72 0d c0 cd ee 91 bd
       -0.42880693 0.93171895 -2.2100987 -0.07125626
000090 d6 de e8 bf fe 82 96 3f 5b 39 23 bf ec f0 70 bf
       -1.8193004 1.1758726 -0.6375939 -0.9411762

backbone.5.block.3.0.weight_bias f4 [40]
000000 a4 2b 46 bf b2 fa 80 3f a6 2c 74 bd 92 4e aa 3e
       -0.7741034 1.0076506 -0.059612893 0.3326307
000010 98 da 9b be 38 95 15 bf 7b f0 fb be 3d 69 75 bf
       -0.3044021 -0.58430815 -0.4920691 -0.95863706
000020 40 f8 4e bf 1f 00 c8 bd 5c 1e e9 3d 79 fa f5 be
       -0.8084755 -0.09765648 0.11382744 -0.48042658
000030 b3 77 69 3b e5 28 3a bf d1 15 1f 3f b7 0c a8 3f
       0.0035624325 -0.7271865 0.62142664 1.312888
000040 bf 8e a8 3d 7a 9b f3 3e 98 a7 06 3e 77 15 be bd
       0.08230352 0.47579557 0.1314987 -0.09281438
000050 0e 49 f8 be 9a 9f 15 3e e7 df a4 3e c5 e1 94 3e
       -0.48493236 0.14611664 0.32202074 0.29078498
000060 41 08 13 bf 5e 73 a7 bf 37 50 1f 40 12 19 9f 3f
       -0.5743447 -1.3082082 2.489271 1.2429526
000070 fe 88 76 bd 60 12 5c 3f 04 3f 3b 3f 8c 64 c7 ba
       -0.06018924 0.8596554 0.7314303 -0.001521246
000080 0c a4 e1 be c0 f0 c9 3e 33 6d 8d bf c9 90 40 3f
       -0.4407047 0.3944149 -1.104895 0.75220925
000090 bc dd b6 3e 9b d0 a2 bf 25 63 a5 3e d5 4b 72 3f
       0.35716045 -1.2719911 0.32302204 0.9464696

backbone.6.block.3.0.weight_bias f4 [40]
000000 3b 76 7f 40 70 c9 c6 39 33 25 e6 bf 2f 17 8b bf
       3.9915912 0.00037915586 -1.7980102 -1.086645
000010 24 00 16 bf 07 98 d5 be 34 6a c0 3e c3 f0 27 bf
       -0.58593965 -0.4171755 0.37581027 -0.6560175
000020 0a 8b 5c bf 71 0d 8b bd a0 e2 8a be b8 bc 90 3e
       -0.86149657 -0.06789673 -0.27126026 0.2826898
000030 6a 9d 01 3c 16 80 55 bf bd 14 bc 3e 6e c0 32 3c
       0.007911066 -0.8339857 0.36734572 0.010910137
000040 75 a2 da be 6d d9 8f 3e fc fe aa bf 0e 3b 54 bf
       -0.4270207 0.2809557 -1.3359065 -0.8290261
000050 e9 a1 dd 3f 79 6c 5c 3f a3 6a ad 3f 3d 11 92 bf
       1.7315036 0.86103016 1.3548168 -1.1411511
000060 13 bc df 3d bb da 35 3f 59 de 1c 40 e0 be 02 3f
       0.10924544 0.7103688 2.451071 0.510725
000070 15 90 34 40 f4 12 23 3f c7 e4 9a bf e3 3c 27 bf
       2.821294 0.63700795 -1.2101067 -0.6532728
000080 9f de 3a 3f d8 7b f1 3f a3 5e 63 bf af ba 6f 3f
       0.7299594 1.8865919 -0.8881628 0.9364423
000090 a3 84 7d 3d c1 fb 1c c0 77 0b 8b be 0c 83 2a bf
       0.06189407 -2.4528658 -0.27157184 -0.6660621

backbone.7.block.3.0.weight_bias f4 [48]
000000 11 24 5d 3e 9e 2e 94 be da 69 91 3e 88 bc 08 c0
       0.2159579 -0.28941816 0.2840107 -2.136507
000010 9f 3d 41 bf 64 e8 b6 be 3c 54 51 be 51 5a 8b bf
       -0.7548465 -0.35724175 -0.20442289 -1.0886937
000020 39 6b 13 40 a3 9c 9a 3c ed ad 01 bf 34 66 38 3f
       2.3034194 0.018873518 -0.50656015 0.7203095
000030 89 d3 5a c0 ac 46 30 3e b0 b9 a6 3e cd 5f 8d 3e
       -3.419161 0.17214459 0.32563543 0.27612153
000040 8c 09 3f bf f8 f1 15 bf df 11 71 bf f0 91 7c bd
       -0.7462394 -0.5857234 -0.94167894 -0.061662614
000050 5c ed 8f bf 55 b4 9e 3f 0c b5 12 bf 63 fc f0 be
       -1.1244311 1.2398783 -0.57307506 -0.47067556
000060 8a 24 4d 3f 5e 16 ec 3e 63 2c 8b 3f 9d e4 a4 3e
       0.8013388 0.46110815 1.0872921 0.32205668
000070 4d ae 8b bf 09 02 ec bd 12 c6 89 bd 21 c8 a6 bf
       -1.0912567 -0.11523826 -0.06727232 -1.3029824
000080 ef 1a f9 39 39 76 8c bf 30 64 8a be c0 04 35 3f
       0.00047513048 -1.0973579 -0.27029562 0.7071037
000090 40 9d cf bf 40 8e ce bf 7a f4 61 3f b0 9f 1a 3f
       -1.6219864 -1.6137161 0.88263667 0.60399914
0000a0 8a d5 56 3f 78 98 0d bf 0d a9 11 3e f7 2c 3c bf
       0.83919585 -0.55310774 0.14224644 -0.7350611
0000b0 b3 d6 60 bf 25 5c 41 3e 1a 59 b7 bf 51 a4 1d bf
       -0.87827605 0.18882807 -1.4324067 -0.6157885

backbone.8.block.3.0.weight_bias f4 [48]
000000 e7 54 f3 3f b1 fc 21 bc 60 cd 1d bf f2 1a 19 3f
       1.9010285 -0.0098869065 -0.616415 0.5980674
000010 c4 20 c7 bf 83 95 01 3f ac d7 27 bf 27 b8 dc be
       -1.5556874 0.5061876 -0.65563464 -0.43109247
000020 27 32 11 40 a5 4d db bd a9 5b 47 3d 08 c0 17 3f
       2.268686 -0.10708169 0.0486714 0.5927739
000030 a3 ca 42 be d3 61 5a bf a4 79 6c be e3 f4 b0 3e
       -0.19022612 -0.8530552 -0.23093277 0.34561834
000040 0b 48 d4 be 84 24 f5 3d 71 f8 65 3e dc 54 16 3e
       -0.41461214 0.119698554 0.22458054 0.14680809
000050 7c b9 7d 3e 45 6f ea be 91 00 b7 3e 74 60 19 3e
       0.24777788 -0.45788017 0.3574262 0.149782
000060 e9 e1 53 3f 49 12 47 be b4 68 5e 3c b3 6c 27 3e
       0.82766587 -0.19440569 0.013574768 0.16350059
000070 4b 8a 4d 3f 3f 9c 4d 3e b5 ce 55 3e 5e 9d 6e 3e
       0.80289143 0.20079134 0.20879634 0.23302218
000080 ae 73 6f 3e 1e 5c 0c bf 2c 3e 96 be b6 0e 28 be
       0.23383972 -0.5482806 -0.29344308 -0.16411862
000090 3c 8a 0b c0 2d 10 5d 3e fc 8f 2d 3e 51 85 d5 3e
       -2.1803122 0.21588202 0.16949457 0.41703275
0000a0 b6 ab 65 3f e5 56 26 3f 0d 10 4f 3d 1b 6f 44 3f
       0.89715135 0.6497634 0.050552417 0.76732033
0000b0 52 68 cd 3f 1e 77 1a bd 81 06 3c 3e 27 d7 5d 3e
       1.6047461 -0.037711255 0.18361856 0.21664105

upsample.9.weight_bias f4 [48]
000000 ce d6 17 3e 93 f6 8e 3e 6e 7e 44 3f 52 d5 b2 be
       0.14828035 0.27922496 0.76755416 -0.34928375
000010 00 4b 2d be 9c 27 a6 3d 21 74 67 3e 4d 4e 3b 3f
       -0.16923141 0.08113024 0.22602893 0.7316635
000020 fa e1 59 bc bb d2 a4 3e 09 e9 6f 3e 35 4f cf 3e
       -0.013298506 0.32192025 0.2342874 0.40490118
000030 6b 6a 86 be 00 67 4e 39 11 99 90 3f 4c 60 32 3f
       -0.26253065 0.00019684061 1.1296712 0.6967819
000040 00 88 da bb 5e f3 08 3f 88 49 e8 bb d1 b1 80 3d
       -0.0066690445 0.5349635 -0.0070888437 0.06283916
000050 d5 66 38 3f b4 30 b2 3e f4 3c 90 be 20 b1 c6 bb
       0.7203191 0.34802783 -0.28171504 -0.0060635954
000060 ad 73 28 3f d2 6d 81 3f 8a f0 1b 3f a1 67 b3 3f
       0.6580151 1.011164 0.6091391 1.4016
000070 1e 0c 27 3f 87 44 1e 3f 3b 92 ad be 48 73 b1 3f
       0.65252864 0.61823314 -0.33900627 1.3863306
000080 06 21 e8 bd 6c 7a a7 3f e5 76 dc 3f 49 2d b1 be
       -0.11334424 1.3084235 1.7223784 -0.34604862
000090 59 37 95 3f 39 55 fb be 17 85 05 3e 54 2a 75 bd
       1.1657516 -0.49088457 0.13039051 -0.05985482
0000a0 94 9a 37 bf 47 30 4b be e6 46 52 3f 96 61 91 3e
       -0.7172024 -0.19842635 0.8213943 0.28394765
0000b0 fa bf 3c bf 77 93 f1 be f4 72 c5 3b 07 96 c6 3e
       -0.73730433 -0.4718282 0.0060256664 0.38786337

refine.0.weight_bias f4 [48]
000000 b9 42 bb 3f c0 f5 e9 bb b9 ec db 3f 34 6f 72 bd
       1.4629737 -0.0071398914 1.7181617 -0.059188083
000010 b6 a1 d4 bc b9 bf 41 bf a2 3e 66 bf 7a 11 b5 3f
       -0.025956016 -0.7568317 -0.8993932 1.4145958
000020 3c 3d 83 bf 50 a6 28 3c f4 9d 08 bf 98 96 94 3d
       -1.0253062 0.010293558 -0.5336602 0.07255286
000030 6c 8c 85 bc f1 e6 b6 3f e6 62 d6 3e 4a b6 c8 3f
       -0.01630231 1.4289228 0.4187233 1.568063
000040 6a 69 98 3f 5b c7 99 bf 5e 57 42 be 4e 23 be 3f
       1.190717 -1.2013963 -0.1897864 1.4854524
000050 84 6b 42 bf a0 78 07 3b 23 a0 2b bd 56 79 f7 3f
       -0.75945306 0.0020671263 -0.041900765 1.9333904
000060 dc 08 fe 3c 32 8d f2 bc 8f 3b 76 bf 61 49 00 3e
       0.031010084 -0.029608343 -0.9618463 0.12527992
000070 82 ee 73 bd 9b fe 32 bf 5c 8d 48 bf 40 55 ac bd
       -0.05955363 -0.6991975 -0.783407 -0.08414698
000080 e8 9d ca bd 24 19 19 bf 88 fa af bc 24 6e d0 bd
       -0.098933995 -0.59803987 -0.021481767 -0.10177258
000090 7b 79 a5 be 5e d3 4e be bb 49 a9 3f 06 2e bb 3f
       -0.32319245 -0.20197818 1.3225626 1.462342
0000a0 2e 49 ba bc ac bd 12 bf 77 60 b5 3f d1 4e dd bd
       -0.022739973 -0.57320666 1.4170064 -0.10806049
0000b0 d7 d1 9f 3d 90 bb 6a 3f b4 7c a8 3f 8e be 7a bf
       0.07803696 0.9169245 1.3163056 -0.97947013

val_328 f4 [4]
000000 00 00 80 3f 00 00 80 3f 00 00 00 40 00 00 00 40
       1.0 1.0 2.0 2.0
